…
s = c(main_input, aux_input), outputs = c(main_output) ) Finally, we ask for the structure of the model, and train it. summary(model_ae) # See model details / architecture ## Model: &quot;model_5&quot; ## __________________________________________________________________________________________ ## Layer (type) Output Shape Param # Connected to ## ========================================================================================== ## aux_input (InputLayer) [(None, 793, 7)] 0 ## __________________________________________________________________________________________ ## layer_1_l (Dense) (None, 793, 8) 64 aux_input[0][0] ## __________________________________________________________________________________________ ## main_input (InputLayer) [(None, 793)] 0 ## __________________________________________________________________________________________ ## layer_2_l (Dense) (None, 793, 4) 36 layer_1_l[0][0] ## __________________________________________________________________________________________ ## layer_1_r (Dense) (None, 8) 6352 main_input[0][0] ## __________________________________________________________________________________________ ## layer_3_l (Permute) (None, 4, 793) 0 layer_2_l[0][0] ## __________________________________________________________________________________________ ## layer_2_r (Dense) (None, 4) 36 layer_1_r[0][0] ## __________________________________________________________________________________________ ## main_output (Dot) (None, 793) 0 layer_3_l[0][0] ## layer_2_r[0][0] ## ========================================================================================== ## Total params: 6,488 ## Trainable params: 6,488 ## Non-trainable params: 0 ## __________________________________________________________________________________________ model_ae %&gt;% compile( # Learning parameters optimizer = &quot;rmsprop&quot;, loss = &quot;mse&qu
…
________________________ ## Layer (type) Output Shape Param # Connected to ## ========================================================================================== ## first_input (InputLayer) [(None, 31)] 0 ## __________________________________________________________________________________________ ## second_input (InputLayer) [(None, 31)] 0 ## __________________________________________________________________________________________ ## third_input (InputLayer) [(None, 31)] 0 ## __________________________________________________________________________________________ ## layer_1 (Dense) (None, 8) 256 first_input[0][0] ## __________________________________________________________________________________________ ## layer_2 (Dense) (None, 8) 256 second_input[0][0] ## __________________________________________________________________________________________ ## layer_3 (Dense) (None, 8) 256 third_input[0][0] ## __________________________________________________________________________________________ ## dense_49 (Dense) (None, 2) 18 layer_1[0][0] ## __________________________________________________________________________________________ ## dense_50 (Dense) (None, 2) 18 layer_2[0][0] ## __________________________________________________________________________________________ ## dense_51 (Dense) (None, 2) 18 layer_3[0][0] ## __________________________________________________________________________________________ ## concatenate_1 (Concatenate) (None, 6) 0 dense_49[0][0] ## dense_50[0][0] ## dense_51[0][0] ## __________________________________________________________________________________________ ## main_output (Dense) (None, 2) 14 concatenate_1[0][0] ## ========================================================================================== ## Total params: 836 ## Trainable params: 836 ## Non-trainable params: 0 ## __________________________________________________________________________________________ model_ens %&gt;% compile( # Learning parameters optimizer = optimizer_adam(), loss = &quot;binary_crossentropy&quot;, 
…
