…
lt;- layer_dot(c(beta_network, factor_network), # Product of 2 networks axes = 1, name = &quot;main_output&quot;) model_ae &lt;- keras_model( # AE Model specs inputs = c(main_input, aux_input), outputs = c(main_output) ) Finally, we ask for the structure of the model, and train it. summary(model_ae) # See model details / architecture ## __________________________________________________________________________________________ ## Layer (type) Output Shape Param # Connected to ## ========================================================================================== ## aux_input (InputLayer) (None, 793, 7) 0 ## __________________________________________________________________________________________ ## layer_1_l (Dense) (None, 793, 8) 64 aux_input[0][0] ## __________________________________________________________________________________________ ## main_input (InputLayer) (None, 793) 0 ## __________________________________________________________________________________________ ## layer_2_l (Dense) (None, 793, 4) 36 layer_1_l[0][0] ## __________________________________________________________________________________________ ## layer_1_r (Dense) (None, 8) 6352 main_input[0][0] ## __________________________________________________________________________________________ ## layer_3_l (Permute) (None, 4, 793) 0 layer_2_l[0][0] ## __________________________________________________________________________________________ ## layer_2_r (Dense) (None, 4) 36 layer_1_r[0][0] ## __________________________________________________________________________________________ ## main_output (Dot) (None, 793) 0 layer_3_l[0][0] ## layer_2_r[0][0] ## ========================================================================================== ## Total params: 6,488 ## Trainable params: 6,488 ## Non-trainable params: 0 ## __________________________________________________________________________________________ model_ae %&gt;% compile( # Learning parameters optimizer = &quot;rmsprop&quot;, loss = &quot;mse&qu
…
etwork, second_network)) %&gt;% # Combination layer_dense(units = 2, activation = &#39;softmax&#39;, name = &#39;main_output&#39;) model_ens &lt;- keras_model( # Agg. Model specs inputs = c(first_input, second_input), outputs = c(main_output) ) Lastly, we can train and evaluate. summary(model_ens) # See model details / architecture ## __________________________________________________________________________________________ ## Layer (type) Output Shape Param # Connected to ## ========================================================================================== ## first_input (InputLayer) (None, 45) 0 ## __________________________________________________________________________________________ ## second_input (InputLayer) (None, 45) 0 ## __________________________________________________________________________________________ ## layer_1 (Dense) (None, 8) 368 first_input[0][0] ## __________________________________________________________________________________________ ## layer_2 (Dense) (None, 8) 368 second_input[0][0] ## __________________________________________________________________________________________ ## dense_38 (Dense) (None, 2) 18 layer_1[0][0] ## __________________________________________________________________________________________ ## dense_39 (Dense) (None, 2) 18 layer_2[0][0] ## __________________________________________________________________________________________ ## concatenate_1 (Concatenate) (None, 4) 0 dense_38[0][0] ## dense_39[0][0] ## __________________________________________________________________________________________ ## main_output (Dense) (None, 2) 10 concatenate_1[0][0] ## ========================================================================================== ## Total params: 782 ## Trainable params: 782 ## Non-trainable params: 0 ## __________________________________________________________________________________________ model_ens %&gt;% compile( # Learning parameters optimizer = optimizer_adam(), loss = &quot;binary_crossentropy&quot;, 
…
